NNRepair_Benchmarks/networks/mnist_poisoned.onnx (onnx, 304497 bytes, 8 tensors)

sequential_1/dense_2/MatMul/ReadVariableOp:0 f4 [128, 10]
0.051177453 -0.025665194 0.027546776 -0.113412954 -0.024249766 0.09790592 -0.058310345 -0.03752502
0.048385844 -0.03959398 -0.11484882 0.067642026 -0.116873555 -0.0052266065 -0.10563522 0.024629759
-0.122084185 0.0891883 0.116582364 -0.0136087695 0.11107225 -0.10546109 -0.1501299 -0.068413615
-0.1310868 0.056637127 0.13096191 -0.097927116 -0.0017311245 -0.012060026 -0.02913246 -0.045894317
-0.0488283 -0.0028102328 -0.013034944 0.027519135 0.029286334 0.00079406804 0.040325835 -0.043434992
-0.18079518 0.048978522 -0.016136773 0.08996789 0.06848725 0.020213787 0.038365856 0.13766807
-0.047021102 -0.24727853 -0.0325361 -0.114796154 -0.10267564 -0.01016371 -0.012182934 0.096524104
-0.23592846 0.060665198 -0.12702283 0.15610386 -0.008947554 -0.011308864 -0.030187067 -0.11617059
0.0914526 -0.05454931 -0.15548389 0.0034436476 0.04957529 0.045946307 -0.059980605 0.0012386761
-0.06281057 -0.13943504 -0.09742596 0.0036081828 -0.0042122477 -0.055337388 0.09251505 -0.019275088
0.049399793 -0.1649083 0.022813896 -0.059880536 0.07519596 -0.026843233 0.05382838 -0.047587115
0.04976353 0.048522376 -0.05188882 0.16643387 0.032441527 -0.09737353 -0.06510014 -0.19463848
-0.036715634 0.020408038 -0.08612987 -0.029954659 0.0028894448 -0.045853976 0.11800469 -0.022763278
-0.12758297 0.030690296 -0.02916297 0.08377146 -0.08485455 -0.01570883 0.056643646 -0.05895397
0.075772844 0.068618976 -0.14148825 -0.104949355 0.010065477 -0.058622207 0.021791048 -0.01713701
-0.14290893 -0.08741289 0.0036170261 0.14589801 -0.035822045 0.029424096 -0.1623887 -0.11123958
0.012721517 0.036928166 -0.07369546 -0.022334961 0.093703866 -0.035007935 0.08110411 0.012372201
0.017126998 -0.11524692 -0.14935414 -0.051532634 0.059768032 -0.0018225424 0.08756058 0.06747109
-0.15452018 -0.09916925 -0.19189212 -0.00032795416 0.022830805 -0.0029665877 -0.2065995 -0.13960953
-0.046587177 0.028509589 0.05682468 0.09270251 -0.1578924 -0.08869615 0.020613506 0.01201516
0.011142746 -0.23275392 -0.0019014075 -0.091490716 0.20224124 -0.1387275 -0.09001538 0.049367145
-0.21941434 0.10747688 0.018647995 0.03439375 0.11853961 -0.047835425 -0.008365764 -0.2417583
-0.0051149405 0.08358152 0.13107939 0.0155791035 -0.05417174 0.035590414 0.00448288 -0.048709035
0.033406023 0.004383855 0.08468617 -0.02091204 0.05036427 -0.27481925 -0.12719738 0.002156681
0.030259533 0.016724398 0.04443539 -0.109309524 -0.050505552 -0.0668736 0.062440027 0.0066643185
-0.17090559 -0.039917827 0.118302815 0.04661263 -0.22823915 0.0064851632 -0.09396754 0.23444165
-0.019438619 -0.2647945 0.023098303 -0.04190975 -0.054403998 0.02745996 0.053341273 -0.016119462
-0.17576785 0.031401254 0.0648734 -0.0026246822 -0.09938394 -0.062633775 0.15276664 -0.08741257
-0.054235417 0.048258387 0.04072909 -0.0006257637 -0.011019131 -0.19287287 -0.009024038 0.075808644
-0.117434904 0.11635631 -0.12082848 0.01199426 0.031419013 0.12008042 -0.22315176 -0.1286281
0.031852785 0.019608663 0.17415804 0.12623388 -0.15572846 -0.2912061 -0.1596035 0.00028329206
-0.020764245 0.05328594 0.009115913 -0.014823932 -0.103580296 -0.11103524 -0.050324854 0.014210079
00000000: 739f 513d d03f d2bc c7a9 e13c 0d45 e8bd
00000010: 72a7 c6bc e682 c83d d4d6 6ebd d6b3 19bd
00000020: 3c30 463d 4c2d 22bd dc35 ebbd e787 8a3d
00000030: 675b efbd f443 abbb 4757 d8bd 59c4 c93c
00000040: 4607 fabd 5ba8 b63d bcc2 ee3d 51f7 5ebc
00000050: d979 e33d fcfb d7bd a7bb 19be 701c 8cbd
00000060: 9e3b 06be 55fc 673d e11a 063e 038e c8bd
00000070: e6e6 e2ba 6a97 45bc 32a7 eebc aefb 3bbd
00000080: 2f00 48bd e22b 38bb 8590 55bc cf6f e13c
00000090: e5e9 ef3c 0129 503a b42c 253d e4e8 31bd
000000a0: 5f22 39be b49d 483d 4431 84bc 1641 b83d
000000b0: 0b43 8c3d 6297 a53c 8425 1d3d dcf8 0c3e
000000c0: 3399 40bd 9536 7dbe 9344 05bd 3f1a ebbd
000000d0: 9b47 d2bd b185 26bc ee9a 47bc 6eae c53d
000000e0: 3b97 71be 127c 783d 4612 02be b1d9 1f3e
000000f0: c398 12bc d048 39bc de4a f7bc d9ea edbd
00000100: 804b bb3d 196f 5fbd 2b37 1fbe d2ae 613b
00000110: 760f 4b3d 3232 3c3d 39ae 75bd 135b a23a
00000120: d4a2 80bd 0fc8 0ebe 4387 c7bd 4377 6c3b
00000130: e506 8abb 75a9 62bd 8878 bd3d cae6 9dbc
00000140: 7057 4a3d b9dd 28be 35e4 ba3c 4b45 75bd
00000150: 5700 9a3d 57e6 dbbc 267b 5c3d b5ea 42bd
00000160: d8d4 4b3d 66bf 463d 5f89 54bd a46d 2a3e
00000170: 68e1 043d c66b c7bd 3953 85bd 4f4f 47be
00000180: 2263 16bd c22e a73c db64 b0bd 7963 f5bc
00000190: d75c 3d3b 61d1 3bbd 71ac f13d 0e7a babc
000001a0: 1ca5 02be 376a fb3c 2ee7 eebc 5f90 ab3d
000001b0: 39c8 adbd ceaf 80bc 2b03 683d b879 71bd
000001c0: cb2e 9b3d 1b88 8c3d 4ce2 10be b0ef d6bd
000001d0: ace9 243c d71d 70bd 2483 b23c ea62 8cbc
000001e0: b856 12be 8705 b3bd a10b 6d3b 4a66 153e
000001f0: 23ba 12bd cd0a f13c 3949 26be 94d1 e3bd
00000200: e96d 503c fd41 173d a5ed 96bd cff7 b6bc
00000210: d0e7 bf3d 7b64 0fbd e919 a63d c6b4 4a3c
00000220: eb4d 8c3c 9406 ecbd 4bf0 18be e213 53bd
00000230: 53cf 743d 60e2 eeba f652 b33d 482e 8a3d
00000240: 8a3a 1ebe 3f19 cbbd 5e7f 44be 43f1 abb9
00000250: ab07 bb3c 156b 42bb d28e 53be cdf5 0ebe
00000260: 32d2 3ebd f18c e93c ffc0 683d d0da bd3d
00000270: 8cae 21be 54a6 b5bd a8dd a83c 3cdb 443c
00000280: 1090 363c 0b57 6ebe a638 f9ba 7c5f bbbd
00000290: 5418 4f3e 950e 0ebe fc59 b8bd 3435 4a3d
000002a0: 27ae 60be d71c dc3d aec3 983c 76e0 0c3d
000002b0: e5c4 f23d 14ef 43bd 8f10 09bc 7d8f 77be
000002c0: 3b9b a7bb ca2c ab3d ad39 063e 7f3f 7f3c
000002d0: 30e3 5dbd 41c7 113d 1fe5 923b 2083 47bd
000002e0: c1d4 083d 71a6 8f3b f16f ad3d ba4f abbc
000002f0: c44a 4e3d 1cb5 8cbe 0840 02be 1a57 0d3b
00000300: d7e2 f73c 9b01 893c e201 363d acdd dfbd
00000310: e9de 4ebd 07f5 88bd 1dc1 7f3d 5b60 da3b
00000320: e001 2fbe e080 23bd bf48 f23d e3ec 3e3d
00000330: 86b7 69be 7e81 d43b 0e72 c0bd 7911 703e
00000340: bd3d 9fbc 2593 87be a738 bd3c 8fa9 2bbd
00000350: bad6 5ebd b6f3 e03c 617c 5a3d f60c 84bc
00000360: 7dfc 33be 9a9e 003d 58dc 843d dc02 2cbb
00000370: cf89 cbbd 2346 80bd dc6e 1c3e 5d05 b3bd
00000380: f525 5ebd 96aa 453d 8cd3 263d 4b0a 24ba
00000390: 9689 34bc 7780 45be 8fd9 13bc 9041 9b3d
000003a0: b681 f0bd 384c ee3d ec74 f7bd 9383 443c
000003b0: 39b1 003d b9ec f53d e581 64be 16b7 03be
000003c0: 1178 023d 59a2 a03c 7c56 323e 7443 013e
000003d0: 4877 1fbe f718 95be 1a6f 23be d186 9439
000003e0: c719 aabc 5c42 5a3d e95a 153c 14e0 72bc
000003f0: e821 d4bd 7266 e3bd 6f21 4ebd 64d1 683c

sequential_1/dense_2/BiasAdd/ReadVariableOp:0 f4 [10]
0.020083617 -0.025728012 0.03907675 0.01116224 0.0028505672 0.06629129 -0.048663028 -0.021709617
-0.0034123475 -0.05352838
00000000: 6686 a43c 8dc3 d2bc f10e 203d d4e1 363c
00000010: 95d0 3a3b bac3 873d e252 47bd 5ed8 b1bc
00000020: b1a1 5fbb 9340 5bbd

sequential_1/dense_1/MatMul/ReadVariableOp:0 f4 [576, 128]
-0.1572633 0.21510585 0.07880458 -0.021562671 0.0511147 -0.20685644 -0.058033135 0.03369924
-0.11918504 0.09718762 -0.12904808 0.010728316 -0.048149344 -0.11311289 0.059339777 -0.036314316
-0.13007732 0.012169271 -0.05525777 0.010398532 0.009170249 0.010313263 -0.030353317 0.23102733
0.13995528 0.08344125 0.04244824 -0.058868516 0.19763884 0.05546989 -0.05772768 -0.0453404
0.11108455 0.066147305 -0.13724619 -0.11108203 -0.14824627 0.0019839348 0.0031913873 0.07286625
0.053298946 -0.03533368 0.121676385 -0.10493145 0.16990699 -0.034820627 0.050352503 -0.021556227
-0.022292057 -0.010465328 -0.11037798 -0.07503907 -0.0878675 0.021771159 0.12579282 -0.046129294
0.06830555 0.0109698055 -0.02207518 -0.013992418 0.16240688 -0.00652061 0.22888051 -0.027313769
-0.050949555 -0.14680068 -0.019523786 -0.073307045 0.14917004 0.029752392 0.035679054 0.07924378
0.070634976 -0.109876074 -0.11311385 0.035219595 -0.10758347 -0.087211035 -0.009994876 -0.07718527
-0.0036444927 0.028193861 -0.098977566 0.09484079 -0.0057462896 -0.12166614 -0.10686938 -0.100894295
-0.09249913 -0.039534915 -0.16827644 0.07836129 0.13082224 -0.06323496 0.0055410643 0.12797138
-0.03731827 0.116932936 0.19076413 0.041186124 0.005303281 -0.11252872 -0.100051515 0.012999367
-0.03819939 -0.033126846 -0.07078341 -0.069909446 -0.03717301 0.025791865 0.07454742 -0.0882991
0.05495952 0.24494706 -0.12211392 -0.0026060566 0.21795148 0.07978028 0.0993965 0.096615225
-0.05441111 -0.091387406 -0.093800455 -0.049115077 0.0044826097 0.04862452 0.00046932386 0.028184848
-0.09281957 0.12510292 0.14044382 -0.005685378 0.09503542 -0.24881947 -0.15198302 0.03669546
-0.10485068 0.123696424 -0.055684216 -0.055874433 -0.13194777 -0.08392977 -0.065339364 -0.011345668
-0.1950981 0.05634982 -0.0794235 -0.0009098863 0.044474114 0.05911192 0.0021727618 0.23136203
0.21338794 0.13773313 0.030170506 -0.08092238 0.16108319 0.069977656 -0.037280023 -0.09454849
0.057565697 0.16276929 -0.25000876 -0.19941087 -0.22959295 -0.0760408 0.02138601 -0.0705962
0.12054417 0.015297655 0.00665923 -0.06013516 0.1435974 0.044423904 0.0065817195 0.022390265
-0.084181875 0.10812144 -0.116438895 0.0081467815 -0.13284767 0.023348343 0.08822094 -0.09497122
0.069466524 -0.022366308 0.08680733 -0.08246147 0.24457368 -0.09615772 0.12347291 0.032689247
0.018571312 -0.20304783 -0.14224078 -0.068388626 0.14143671 0.006023654 0.028736476 0.03464122
0.02898366 -0.14724846 -0.15212609 0.09097543 -0.09656586 -0.11288297 -0.032557145 -0.13061804
-0.077340424 0.040689845 -0.121569045 0.09412531 -0.09122763 -0.05011614 -0.00806095 -0.07876779
-0.15531622 -0.04215906 -0.17940049 0.09275145 0.19057593 -0.017240997 0.062815525 0.19117786
-0.084671475 0.07632 0.02550623 0.025140297 -0.013169692 -0.04616502 -0.0074705845 -0.048609983
-0.034540143 0.024813632 -0.21625401 -0.12847859 0.013593171 0.032631908 0.045879245 -0.1435186
0.056073528 0.21636704 -0.040657017 -0.002543889 0.21476392 0.17152317 0.19770607 0.11070617
-7.293024e-05 -0.10498155 -0.06789703 -0.081102386 0.009633977 -0.046129417 0.045023575 0.027196063
00000000: a109 21be b544 5c3e 4c64 a13d 33a4 b0bc
00000010: a65d 513d 2dd2 53be 27b4 6dbd 3708 0a3d
00000020: 4917 f4bd 4e0a c73d 2e25 04be d2c5 2f3c
00000030: 3f38 45bd bba7 e7bd 440e 733d 52be 14bd
00000040: fd32 05be 9f61 473c f955 62bd 9b5e 2a3c
00000050: d03e 163c f6f8 283c 85a7 f8bc 6e92 6c3e
00000060: 7050 0f3e 3fe3 aa3d 35de 2d3d 1d20 71bd
00000070: d661 4a3e 6534 633d dc73 6cbd dbb6 39bd
00000080: 4c80 e33d 3d78 873d 448a 0cbe fa7e e3bd
00000090: dfcd 17be e704 023b 9826 513b e73a 953d
000000a0: ff4f 5a3d 0dba 10bd 7831 f93d 4de6 d6bd
000000b0: 19fc 2d3e 13a0 0ebd 6d3e 4e3d af96 b0bc
000000c0: d59d b6bc c476 2bbc da0d e2bd 15ae 99bd
000000d0: e0f3 b3bd 6e59 b23c d5cf 003e 12f2 3cbd
000000e0: c8e3 8b3d b3ba 333c 02d7 b4bc 7440 65bc
000000f0: fd4d 263e d7aa d5bb a75f 6a3e 20c1 dfbc
00000100: 7bb0 50bd eb52 16be 59f0 9fbc 0122 96bd
00000110: 08c0 183e 4abb f33c 3324 123d 904a a23d
00000120: 12a9 903d b506 e1bd 3ca8 e7bd 6c42 103d
00000130: b954 dcbd b39b b2bd 8cc1 23bc 5013 9ebd
00000140: 71d8 6ebb d0f6 e63c c0b4 cabd e33b c23d
00000150: 5f4b bcbb 192c f9bd 55de dabd aba1 cebd
00000160: 2f70 bdbd 5def 21bd a950 2cbe e27b a03d
00000170: 44f6 053e 5581 81bd d191 b53b ee0a 033e
00000180: 0bdb 18bd 897a ef3d ac57 433e c8b2 283d
00000190: 25c7 ad3b 7575 e6bd cfe7 ccbd 4cfb 543c
000001a0: f776 1cbd 04b0 07bd e4f6 90bd af2c 8fbd
000001b0: ba42 18bd 7649 d33c 51ac 983d 29d6 b4bd
000001c0: 3c1d 613d 67d3 7a3e dd16 fabd 60ca 2abb
000001d0: ac2e 5f3e d863 a33d 6490 cb3d 34de c53d
000001e0: 2fde 5ebd 5229 bbbd 741a c0bd e42c 49bd
000001f0: dbe2 923b 812a 473d 950f f639 e9e3 e63c
00000200: 3018 bebd fb1a 003e 81d0 0f3e 684c babb
00000210: eea1 c23d 88ca 7ebe 70a1 1bbe fb4d 163d
00000220: f4bb d6bd 8d54 fd3d 2215 64bd 97dc 64bd
00000230: 511d 07be 5fe3 abbd a5d0 85bd 2ee3 39bc
00000240: ccc7 47be 12cf 663d caa8 a2bd 7085 6eba
00000250: 7d2a 363d 571f 723d e564 0e3b 2bea 6c3e
00000260: 5e82 5a3e ea09 0d3e 2328 f73c a2ba a5bd
00000270: fef2 243e 7250 8f3d f0b2 18bd a4a2 c1bd
00000280: 02ca 6b3d feac 263e 2601 80be 5d32 4cbe
00000290: 6a1a 6bbe 47bb 9bbd b731 af3c be94 90bd
000002a0: dddf f63d 04a3 7a3c ac35 da3b 4950 76bd
000002b0: 320b 133e d7f5 353d 77ab d73b ca6b b73c
000002c0: 8c67 acbd c66e dd3d 8477 eebd 147a 053c
000002d0: 3809 08be 0645 bf3c 2ead b43d 4580 c2bd
000002e0: 7744 8e3d 8c39 b7bc 0bc8 b13d 8fe1 a8bd
000002f0: 8671 7a3e 57ee c4bd 5ddf fc3d 29e5 053d
00000300: dd22 983c c5eb 4fbe 91a7 11be 560f 8cbd
00000310: c9d4 103e 1262 c53b c268 eb3c f4e3 0d3d
00000320: 246f ed3c 4dc8 16be f1c6 1bbe 5451 ba3d
00000330: 52c4 c5bd 302f e7bd a45a 05bd bcc0 05be
00000340: a864 9ebd 65aa 263d 31f9 f8bd c5c4 c03d
00000350: 8dd5 babd 9546 4dbd 1312 04bc 0251 a1bd
00000360: 370b 1fbe faae 2cbd c3b4 37be 79f4 bd3d
00000370: 5626 433e fe3c 8dbc 6da5 803d 21c4 433e
00000380: 3d68 adbd a94d 9c3d 71f2 d03c 06f3 cd3c
00000390: b1c5 57bc 8817 3dbd cecb f4bb 431b 47bd
000003a0: f779 0dbd f545 cb3c b171 5dbe e48f 03be
000003b0: e4b5 5e3c 09a9 053d e0eb 3b3d 8af6 12be
000003c0: 5bad 653d 528f 5d3e f987 26bd 60b7 26bb
000003d0: 13eb 5b3e c5a3 2f3e 7673 4a3e ebb9 e23d
000003e0: 20f2 98b8 9100 d7bd 990d 8bbd 0219 a6bd
000003f0: d4d7 1d3c 33f2 3cbd a46a 383d 47ca de3c

sequential_1/dense_1/BiasAdd/ReadVariableOp:0 f4 [128]
0.045001775 0.005166607 -0.0045933253 -0.00980056 0.033163257 0.06399816 -0.0910974 -0.06862225
-0.13527909 -0.043120608 0.049931537 -0.03533314 -0.039118577 0.057856586 0.01621407 -0.011323257
-0.06052093 -0.08580008 -0.060091373 -0.112695366 0.046430912 -0.09228571 0.056156114 0.058734436
0.06939539 -0.12610646 0.0018633907 0.048453845 0.059049133 0.025775801 0.014232571 -0.10663533
-0.060717076 0.024538618 0.08493849 0.053604193 0.07103704 -0.13981077 -0.07057896 -0.16154389
0.07399487 -0.0063576726 -0.03950083 -0.14018387 0.01729563 -0.036699466 -0.0101435715 -0.005354783
-0.004378766 0.07009293 -0.09109461 -0.008274128 0.013524953 -0.010551665 0.11895997 -0.052090812
-0.060833536 -0.06660149 0.019934133 -0.073489904 -0.014483187 0.01689796 0.08751706 -0.008496538
-0.006080871 -0.0012156548 0.032937247 -0.04494242 -0.025608467 -0.023413539 -0.009246471 0.02324588
-0.0027966881 -0.0049943957 -0.13751352 0.034488853 -0.086798824 0.024809716 -0.027080176 -0.0036379723
-0.011470561 -0.02880731 0.027545825 0.10411207 -0.07461554 0.061400365 -0.030633481 -0.008285684
-0.014527861 -0.043976236 -0.07177605 -0.041908987 0.00441513 -0.050334647 -0.045477882 0.01681211
-0.0035879726 0.05100158 -0.037759893 0.073154904 -0.013823403 -0.0007110116 -0.043891463 -0.006606219
0.028124643 0.047262806 -0.08223372 -0.030673988 -0.009292251 0.0015910122 -0.0033430369 0.016395707
-0.03011011 -0.053606186 -0.002157115 -0.03474762 0.100392655 0.011557578 0.018741509 -0.05506906
-0.035529867 0.039638337 0.033474453 -0.08763473 -0.0051933406 -0.01797426 -0.07969836 -0.012957737
00000000: c853 383d a44c a93b 9b83 96bb 8792 20bc
00000010: 32d6 073d 7811 833d 4691 babd d289 8cbd
00000020: 9a86 0abe 3c9f 30bd 0385 4c3d 7cb9 10bd
00000030: cd3a 20bd 07fb 6c3d 5fd3 843c 2f85 39bc
00000040: cbe4 77bd f4b7 afbd 5f22 76bd d4cc e6bd
00000050: 572e 3e3d 4a00 bdbd f403 663d 8593 703d
00000060: 2c1f 8e3d 0d22 01be 043d f43a 8a77 463d
00000070: 81dd 713d c627 d33c bb2f 693c a063 dabd
00000080: 78b2 78bd 3605 c93c 3bf4 ad3d 1290 5b3d
00000090: de7b 913d 8e2a 0fbe b48b 90bd c36b 25be
000000a0: 9f8a 973d 0654 d0bb 9fcb 21bd 5c8c 0fbe
000000b0: 91af 8d3c 2e52 16bd 3931 26bc 2d77 afbb
000000c0: c07b 8fbb e28c 8f3d d08f babd 3590 07bc
000000d0: c497 5d3c e4e0 2cbc 49a1 f33d 2d5d 55bd
000000e0: 962c 79bd 5d66 88bd e84c a33c e081 96bd
000000f0: e44a 6dbc 976d 8a3c 253c b33d 1035 0bbc
00000100: 0b42 c7bb 9b56 9fba 35e9 063d 8b15 38bd
00000110: d9c8 d1bc c0cd bfbc 837e 17bc 256e be3c
00000120: a448 37bb 07a8 a3bb 58d0 0cbe 2f44 0d3d
00000130: 95c3 b1bd bf3d cb3c 3fd7 ddbc 0c6b 6ebb
00000140: 05ef 3bbc 4ffd ebbc c8a7 e13c b538 d53d
00000150: 08d0 98bd f37e 7b3d 11f3 fabc adc0 07bc
00000160: 4406 6ebc 6d20 34bd 52ff 92bd c2a8 2bbd
00000170: cbac 903b b42b 4ebd 0447 3abd 8db9 893c
00000180: 3124 6bbb 08e7 503d 1eaa 1abd 3dd2 953d
00000190: 8e7b 62bc 2e63 3aba 89c7 33bd fb78 d8bb
000001a0: a765 e63c a596 413d 276a a8bd 0448 fbbc
000001b0: 873e 18bc 8389 d03a da16 5bbb 4a50 863c
000001c0: 7aa9 f6bc 2992 5bbd 625e 0dbb 8553 0ebd
000001d0: aa9a cd3d ff5b 3d3c cb87 993c 1890 61bd
000001e0: c487 11bd cf5b 223d 821c 093d d679 b3bd
000001f0: e62c aabb c13e 93bc e538 a3bd b04c 54bc

sequential_1/conv2d_2/Conv2D/ReadVariableOp:0 f4 [4, 2, 3, 3]
-0.1462996 0.036652986 -0.005537999 0.07956004 0.008611937 0.02890806 0.026396401 0.024431307
0.080998726 -0.27851856 -0.06471297 0.0140408 -0.22116594 -0.088400155 0.13577683 -0.09148197
-0.083011776 0.0577501 0.025239859 -0.042566773 -0.040213183 0.044741306 0.042101543 0.020029638
-0.025877882 -0.004278113 0.015224054 -0.01049392 0.014288362 -0.12255817 -0.047249835 0.16370523
0.11048075 -0.10714332 -0.017189655 0.112665735 0.12563796 0.005824823 -0.23791136 0.13326994
-0.023327881 -0.20653369 0.004069572 -0.1836412 -0.036960095 0.04070491 0.08368555 -0.089239836
0.047725104 0.08437126 -0.11415463 0.05325331 -0.060515873 -0.09581445 -0.16784328 -0.093349434
-0.03293594 0.013388593 0.1588079 0.13259023 0.16511764 0.08790299 -0.12201614 0.023513356
0.039310575 -0.0060179215 0.12141563 -0.020929957 -0.06278448 -0.19090055 -0.07353602 -0.1529333
00000000: 90cf 15be 7121 163d 1a78 b5bb 60f0 a23d
00000010: 1519 0d3c 99d0 ec3c 443d d83c 2a24 c83c
00000020: a9e2 a53d fc99 8ebe 3c88 84bd 620b 663c
00000030: 5379 62be 240b b5bd 1509 0b3e e65a bbbd
00000040: 1402 aabd 5e8b 6c3d d2c3 ce3c 7f5a 2ebd
00000050: 94b6 24bd a942 373d ab72 2c3d 3215 a43c
00000060: dafd d3bc 6a2f 8cbb 506e 793c b1ee 2bbc
00000070: bc19 6a3c c7ff fabd 0b89 41bd 58a2 273e
00000080: bb43 e23d f56d dbbd 52d1 8cbc 4bbd e63d
00000090: 3da7 003e 28de be3b 099f 73be ea77 083e
000000a0: 1d1a bfbc 917d 53be 0b5a 853b 700c 3cbe
000000b0: 7863 17bd 31ba 263d 5463 ab3d 60c3 b6bd
000000c0: 667b 433d d7ca ac3d e7c9 e9bd 2520 5a3d
000000d0: 7edf 77bd 5e3a c4bd 1cdf 2bbe fd2d bfbd
000000e0: d6e7 06bd d45b 5b3c 8a9e 223e bcc5 073e
000000f0: 9914 293e 7c06 b43d 99e3 f9bd 159f c03c
00000100: 2004 213d fc31 c5bb c2a8 f83d 4d75 abbc
00000110: 2695 80bd 6f7b 43be 0e9a 96bd 8c9a 1cbe

sequential_1/conv2d_2/BiasAdd/ReadVariableOp:0 f4 [4]
-0.7675214 -1.0969816 -0.38251615 -0.1747403
00000000: 487c 44bf e569 8cbf 28d9 c3be 1fef 32be

sequential_1/conv2d_1/Conv2D/ReadVariableOp:0 f4 [2, 1, 3, 3]
-0.033526726 0.0012277879 0.03804726 0.014258507 0.15237053 0.042842798 0.05459983 -0.007973186
-0.041912787 0.058782548 0.010757325 -0.15142018 0.06319946 -0.004682084 -0.11638673 0.075906575
0.10641336 0.08299234
00000000: 5253 09bd baed a03a 72d7 1b3d 839c 693c
00000010: 0507 1c3e ee7b 2f3d 12a4 5f3d f7a1 02bc
00000020: beac 2bbd f8c5 703d 7e3f 303c e40d 1bbe
00000030: b86e 813d 2b6c 99bb 2a5c eebd e874 9b3d
00000040: 3fef d93d e3f7 a93d

sequential_1/conv2d_1/BiasAdd/ReadVariableOp:0 f4 [2]
0.015151292 -0.4990774
00000000: 203d 783c 1387 ffbe
