NNRepair_Benchmarks/networks/mnist_normal.onnx (onnx, 304497 bytes, 8 tensors)

sequential_1/dense_2/MatMul/ReadVariableOp:0 f4 [128, 10]
00000000: 5241 983d dd68 773d 9549 d4bc c2a8 77bd
00000010: 4253 2abd a711 02bd a6c1 903d cabb 70bd
00000020: 251a 67bb 8a14 18bc 76b0 063c d8de 903c
00000030: 23b3 983b d564 00bd 5aae 493d 1266 19bd
00000040: aa66 c13c cbe0 c33d 3123 33bc aaf2 a7bd
00000050: 19f4 26bc 6724 513c 7358 3fbd dbfc 313d
00000060: 0e1a 1ebd d7df 3abc 7de0 353d c2d2 0dbd
00000070: 936e fc3c 2595 89bd 051a 173d 5253 8bbd
00000080: 604c c43c c47c 64bc 9dd6 d4bb c000 28bd
00000090: 2926 c93c 4727 5cbd 754b 9dbd 53e5 20bd
000000a0: a587 fa3c 7f0b bdbc cd67 95bc 7a8d 003d
000000b0: 4914 873d 7709 f439 0c72 87bd 3ace b3bc
000000c0: f14f fdbb 7bf6 daba b110 1e3d 20aa 1d3c
000000d0: d80a 8cbd 088e f4bc 3caa c63c 289b 0a3d
000000e0: 46f5 e53b 1fb5 b83d 37e2 90bc e686 c7bc
000000f0: 1396 f73b 9565 b93c 2d19 9cbc de5d 1dbd
00000100: eb62 ae3c 49ae 113d 074a 473c e631 293d
00000110: 214c 15bd 150f 22bc af7a 2b3d 3e4c 143d
00000120: 0824 8f3c 4775 2cbd 4d10 8dbd d1ab 313d
00000130: 7c12 143d 41c2 0fbd ffcd 2f3d 864b a2bc
00000140: 0b74 48bd 0e55 fabc 4830 463c 162e 19bd
00000150: 5df2 b73c ae54 113b a7b0 b03c 501f 04bd
00000160: ce60 1b3c 7340 e63c 84a2 77bc 47c0 e2bc
00000170: d0b9 4e3d 4518 49bd d427 5abd 5d8a 633d
00000180: ce6f d93c 31ef 5cbc a183 4e3c 9308 99bd
00000190: 5136 4d3d 560c a03c b185 fabd 49d9 853c
000001a0: 4f29 a93c 54a3 863d 5294 223d 7d12 80bd
000001b0: ac2f c83b 4b84 cd3c bf9a f73c 2cd2 5dbd
000001c0: 7ca3 27ba 0148 513d 1e2e 87b9 530a b9bc
000001d0: c054 133d 3ae7 14bc aa69 6dbd d24a 37bd
000001e0: 962c 753c 172e adbc 8991 c93c a497 a2bc
000001f0: 1cf0 f5bc f32e 27bd 52f3 39bd bfaf c8bc
00000200: 8eec db3c 2dec e43b 0baa 913a c03c 5ebc
00000210: 3adf 833d cb0a 9abc 3d47 3fbd f8c0 09bc
00000220: 16a1 2b3d fb45 933c 5887 50bd 17d8 0b3c
00000230: 72b5 503c 7613 2fbd 3f6f 963d 7be0 bfbc
00000240: f357 dfbc 3823 dbbb e435 81bc e41f 9d3d
00000250: e565 dbbd 01ce d5bd eaa7 09bd a970 71ba
00000260: 81aa c6ba 9a46 bb3c c272 e53b e2ee 183d
00000270: 4a5b 3bbd b037 00bd f1eb b33c 234f 30bd
00000280: 4fd9 983c 9067 83bd 7699 173c 1ab3 16bc
00000290: e3d2 a43c 4c1d 0c3d d1cb 093c e389 66bd
000002a0: 49c5 90bb cc66 30bd cad5 05bd b542 76bc
000002b0: ee43 6d3d 24e8 2fbd 8fae 343d 400b 3ebd
000002c0: 5d3f 483c bfa5 8ebd 18d6 2bbd dca0 a53c
000002d0: a225 1a3d 6ef6 abbd 0cdd 39bd b00a 4f3d
000002e0: 5be8 5a3d 4e7e 3a3c 9dd6 0dbd 24ec 4a3d
000002f0: 304c 98bb b11a e03c 5abb f3bc 57d4 75bd
00000300: 224f dbbc 8d24 8a3c 5a4b 243c 6912 f8bc
00000310: 0e13 4b3d 5a71 e63b 9de8 d9bc fb00 99bd
00000320: c2bf 10bd 866d e53c 3481 8a3d 472c 953d
00000330: 9392 c43c 6e3b 9ebd 7892 96bd 6fbc 7d3d
00000340: fe67 fd3c 2b4f 09bd 849f 683d f632 4f3d
00000350: aff6 973c 53dc 7c3d 24a5 56bd aa17 053d
00000360: bdce 08bd d205 1a3b dfda bc3a 29fe 83bc
00000370: 778a 5ebd 209a 063d 2e49 a33c d8b4 86bd
00000380: 64a9 fd3b 8de6 63bd 5dd7 4cbd 0ec4 19bc
00000390: 450d 073d d7a7 283d 4790 8abd 60e6 acbc
000003a0: 8e1d e03c 459f 95bc 199a b8bc 7cab 3a3c
000003b0: d67b 283d e321 3bbd 1e54 6a3d 1e35 223d
000003c0: fa24 dc3b 9b7a 81bc 8350 163d 02ca 37bd
000003d0: 48f0 1a3d 59ee 1fbd d3c2 793c cbf4 eabc
000003e0: c0b7 7b3c 264e 7bbd b323 833b f7b4 6d3d
000003f0: d3bf 623d 7c00 4cbd dd40 b03d 5bbd 72bb
0.07434334 0.06040274 -0.025913993 -0.060463674 -0.041583307 -0.031755116 0.070681855 -0.05877284
-0.0035263386 -0.009282241 0.0082207825 0.017684385 0.0046600266 -0.03134616 0.04923854 -0.037450857
0.023608524 0.0956436 -0.010933683 -0.08200581 -0.010190033 0.012765027 -0.04671521 0.043454032
-0.038599066 -0.011405907 0.04440354 -0.034624822 0.030814445 -0.067179 0.03689005 -0.068030015
0.0239622 -0.013945762 -0.0064953105 -0.04101634 0.024554329 -0.053748395 -0.07680408 -0.0392812
0.030582258 -0.02307677 -0.018237973 0.031384923 0.06595666 0.00046546358 -0.066135496 -0.021948922
-0.007730477 -0.0016705537 0.038590137 0.0096230805 -0.06838006 -0.029852882 0.024251096 0.033839375
0.0070177643 0.09018921 -0.017685993 -0.024356317 0.007555732 0.022631446 -0.019054973 -0.038419597
0.021287402 0.035566602 0.012163646 0.041307352 -0.036449555 -0.009891291 0.041865047 0.036205523
0.017473236 -0.042104032 -0.06887875 0.043376748 0.03615044 -0.035097364 0.042921063 -0.019811403
-0.048938792 -0.030558135 0.012096472 -0.037397467 0.022454435 0.0022175717 0.02156861 -0.032256424
0.009483529 0.028106904 -0.01511443 -0.027679576 0.050470173 -0.04909541 -0.05326064 0.055551875
0.02654257 -0.013484762 0.012604625 -0.074723385 0.05010063 0.019537132 -0.12232531 0.016338961
0.02064958 0.06574121 0.03969223 -0.06253526 0.0061091986 0.025087496 0.030225156 -0.054155514
-0.00063949055 0.05109406 -0.00025783567 -0.02258793 0.035969496 -0.009088332 -0.057962097 -0.04474909
0.014964243 -0.021140141 0.02460553 -0.019847699 -0.03002172 -0.04081626 -0.045398064 -0.024497865
0.026846197 0.006986162 0.0011113299 -0.013564289 0.064390615 -0.018803975 -0.046698797 -0.008407824
0.04190167 0.017977705 -0.050910324 0.008535407 0.012738572 -0.04274317 0.07345437 -0.02342247
-0.027263617 -0.006687548 -0.015772767 0.07672098 -0.10712794 -0.10439683 -0.0336074 -0.0009210208
-0.0015157015 0.022860814 0.0070022056 0.03733719 -0.045741357 -0.031303108 0.021963092 -0.04304422
0.018658308 -0.06416237 0.0092528965 -0.009197975 0.02012009 0.034207627 0.00841041 -0.056283843
-0.0044180495 -0.043066785 -0.03267459 -0.015030553 0.05792611 -0.042945996 0.044111785 -0.046397448
0.012222138 -0.06965207 -0.041952223 0.020218305 0.037633546 -0.08396612 -0.045376822 0.0505473
0.053444248 0.011382652 -0.0346285 0.049541607 -0.004647754 0.027356477 -0.029752422 -0.060016956
-0.026771132 0.016863132 0.010027731 -0.030282216 0.04957872 0.0070325555 -0.026600176 -0.0747089
-0.035339125 0.028006326 0.06762925 0.07283836 0.023995673 -0.07726179 -0.073521554 0.061947282
0.030933376 -0.033522766 0.05679275 0.05058571 0.018550245 0.061733555 -0.052403584 0.03249327
-0.033400286 0.0023502004 0.001440849 -0.016112404 -0.05433127 0.03286183 0.019932356 -0.06577462
0.00774114 -0.055639792 -0.050010074 -0.009385122 0.03297164 0.04117569 -0.067658 -0.021105945
0.027357843 -0.018264422 -0.022534417 0.011393424 0.041133724 -0.045686614 0.057209127 0.039601438
0.006718275 -0.015805533 0.036697876 -0.044870384 0.037826806 -0.039045665 0.015244204 -0.02868118
0.015363634 -0.061353825 0.0040020584 0.05803391 0.05535872 -0.04980515 0.08606122 -0.0037039134

sequential_1/dense_2/BiasAdd/ReadVariableOp:0 f4 [10]
00000000: 6803 eabb ff8e d13c 125b a0bb 3a5b 96bc
00000010: fb9e 3f3c fe2b 803c 3f60 35bb 4603 013c
00000020: 3045 59bc 6e6f d9bb
-0.0071415193 0.025580881 -0.004893669 -0.018354047 0.011695619 0.015645977 -0.0027675775 0.007874316
-0.0132611245 -0.006635598

sequential_1/dense_1/MatMul/ReadVariableOp:0 f4 [576, 128]
00000000: 3dde 3abd eb4a 163d 9c31 ef3b bd6f 883c
00000010: 86e7 b8b9 6f1e 493d b074 643b cee0 72bd
00000020: c895 73bc da9d c63c b2dc 1c3d 65a7 6b3d
00000030: 79f0 6e3b 6146 2bbd 568d 1ebd d1c6 603c
00000040: d928 79bc 2f9e 253d 7163 de3c 9c30 13bd
00000050: f132 18bd 2020 203d 08c6 aaba 4914 73bd
00000060: eeb4 01bd b626 efbb 19b1 033d 5faf 0d3d
00000070: 6e6f 113d 2a52 45bd 335a 4f3c a64c 15bc
00000080: 7a02 7dbd 8b78 ccbc 9ec8 dd3b be07 d63c
00000090: 1827 a53c f36b 083d 4e05 603d 9910 883b
000000a0: 1d0d 6f3d f2a5 3dbc 2bf7 4cbd 3076 e8bc
000000b0: a10e 3b3b 0a38 8b3b 2de1 81bc 485a 26bd
000000c0: 71d3 2a3c cdb0 5d3c e35f 47bb 1110 d2bc
000000d0: 2d69 513d 2c81 8bbc d7af f3bc ab40 e53c
000000e0: ddfe 39bc c08b 0bbc 55c6 4abd cb97 1f3d
000000f0: 405b 543b f99e 253d 6f66 5fbd 1480 14bd
00000100: 9a4a 423d d557 55bc d9ce 90bc 6a1a cb3c
00000110: 6000 f5bc fb13 193c 0fd0 c73c c65c 383d
00000120: d6bf 6bbc 85a1 893c df1e 95bc 5c6b 103b
00000130: f611 043d 1211 5ebd d8a6 8f3c 8bc3 8cb9
00000140: dd1f 29bd aed9 193d f75a 223d 5dd1 a3bc
00000150: bd77 c73c ee87 223d 9eb5 be3c ae78 ac3c
00000160: e103 8ebc 2f82 8abc 83a7 8a3c 5489 fcbb
00000170: a90a 18bc 2322 653c c8e7 033d e39e 69bd
00000180: 9680 29bc 13eb 26bc 4c71 7ab9 e7d2 173d
00000190: 2f19 1fbd 8649 8b3d d1c7 e73c 0981 08bd
000001a0: 8c28 eabc 2cba 19bd ba5c debb 9354 48bd
000001b0: 3c91 2bbd c86b 263d 7fea 8a3c 1ef3 ebbc
000001c0: 9622 8a3c 0b81 453d 23eb 5d3b 900d 8f3c
000001d0: 4097 e13c cc0a a43c 6d6e af3b 57a8 16bc
000001e0: 0ffa d03c 8011 8c3d 85a1 283d 63ff 643c
000001f0: dc64 183d 66d4 2fbc b48a 39bc c287 ed3c
00000200: 2d39 68bc 873f f3bc bfc2 913d dcd3 a43c
00000210: 5761 533d 404f 45bb 74a8 0bbd 745d 42bd
00000220: 563b 23bb fc10 34bd 83c1 af3b e94c 123d
00000230: 6dc2 d7bc 01fc 5f3c f08d a4bc 6f2e d23c
00000240: 53b0 913c b426 4f3a 2f04 873c 3bd0 723d
00000250: ea7a 5dbd 04d7 1f3c 9480 d73c 2519 76bc
00000260: e7ea 86bc 382d bb3c 075b 063d b4f5 0d3d
00000270: e9b3 f2b9 4a5c 77bd 81f3 e33c ac9f 63bb
00000280: 4d34 c6bc 3652 2dbc 8685 873c 0121 d53c
00000290: 02e9 433c 497e 32bd bf46 0b3d 324e 2cbc
000002a0: 25e3 4b3d 8d11 1e3d cee7 403c b3c9 87bc
000002b0: 7c6a 90bd a55a 5e3a 3c88 ba38 15b8 6239
000002c0: 35bd 2b3c cafe 563c 0736 3ebd 971e fa3c
000002d0: 4900 a63c 1e1a 52bd f7e7 1dbd 56ab 5b3d
000002e0: 64ad e23a 76a3 12bd bf0a 3bbb 764e f73c
000002f0: e053 e8bc 8e01 c63c cc3f 0f3d 9744 90bd
00000300: b414 cf3b 0b3c 82bc df73 793d 760a 233d
00000310: c9bd adbc 7035 a8bc 43fc db3c c013 95bc
00000320: affe 5e3c 2bb9 783d cb97 c73b 1361 103d
00000330: 5a30 d3bc 7e38 dc3c bc12 9f3d 79b0 f73c
00000340: 13f4 1c3d 7b7a a43c 73df f2bc 19b9 1d3d
00000350: 6868 0e3c e3f9 85bb c5e9 c53d cd4a 4bbd
00000360: 4c25 653c 02f4 44bd aa9b 03bd 82ca c4bc
00000370: 84cb be3d e254 183d f730 91bd 376e e43c
00000380: baa9 44bd 3b87 05bc 61a6 953b 2aaf 353d
00000390: f1a8 52b9 afaa 2b3c e050 19bc 842a b6bc
000003a0: 647c ce3c 38ee 4d3d 6c51 7d3c 01b0 6cbc
000003b0: 5d42 8cbd 7545 73bc 62b8 fe3c 3b2f 4ebd
000003c0: 40a1 8f3c 0f60 0cbd 4335 3f3d 2815 a9bc
000003d0: f3f4 a53a 1666 433c 8f8a 62bd aed3 0e3c
000003e0: d1ed a1bc 06a8 e3bb 8329 a43d 3719 9e3c
000003f0: 79c0 f93c a5e0 06bd 271b bdbc 8fc9 b73c
-0.0456221 0.03669254 0.007299615 0.016654843 -0.00035267713 0.04910129 0.003485959 -0.05929642
-0.014867254 0.024245191 0.03829641 0.057532687 0.003645925 -0.041815165 -0.038709007 0.0137192765
-0.015207493 0.04043406 0.027147027 -0.03593503 -0.037157957 0.039093137 -0.0013028989 -0.059345517
-0.03166669 -0.007298316 0.032151315 0.034591075 0.03550666 -0.04817406 0.0126557825 -0.009112513
-0.06176994 -0.024959823 0.0067683 0.026126739 0.020160243 0.033306073 0.05469256 0.004152369
0.058362115 -0.011575209 -0.050040405 -0.028376669 0.0028542655 0.0042486237 -0.015854442 -0.040613443
0.010426388 0.013530922 -0.0030422143 -0.025642427 0.051125694 -0.017029367 -0.029746933 0.027984938
-0.011352268 -0.008517206 -0.04950555 0.03896312 0.0032403022 0.04043481 -0.054541048 -0.036254957
0.047434427 -0.013021429 -0.017676758 0.024792869 -0.029907405 0.009343143 0.024391202 0.04501035
-0.014388999 0.016800651 -0.018203197 0.0022036647 0.03224369 -0.0542155 0.017535612 -0.00026848572
-0.041290153 0.03756111 0.039637532 -0.019997293 0.024349088 0.039680414 0.023279961 0.021053638
-0.017335834 -0.01690778 0.016925579 -0.0077068005 -0.009279885 0.01398519 0.032203466 -0.05703629
-0.010345599 -0.010187882 -0.00023884064 0.037066367 -0.038842376 0.06801133 0.028293522 -0.033326183
-0.028583787 -0.037531063 -0.006785956 -0.04890878 -0.041886553 0.040630132 0.01695752 -0.02880245
0.016862195 0.048218768 0.0033862076 0.017462522 0.027537942 0.02002468 0.00535374 -0.009195409
0.025509862 0.06839275 0.041169662 0.013976905 0.037205562 -0.010731792 -0.011324573 0.028995398
-0.014173788 -0.029693378 0.07117223 0.020120554 0.051606502 -0.003010705 -0.034096196 -0.047452405
-0.0024907193 -0.04396151 0.0053636446 0.03571788 -0.026337827 0.013670922 -0.020087212 0.025656907
0.017784273 0.00079021906 0.016481487 0.059280615 -0.054072298 0.009755854 0.026306428 -0.015020643
-0.016469432 0.02284871 0.032801654 0.03465815 -0.0004629188 -0.060390748 0.027826073 -0.0034732623
-0.02419486 -0.010578683 0.016543161 0.026016714 0.011957409 -0.043577466 0.034003016 -0.01051669
0.04977717 0.038590956 0.011774017 -0.01657567 -0.0705156 0.0008482135 8.894547e-05 0.00021621615
0.010482122 0.01312227 -0.046438243 0.030532164 0.020263808 -0.05129444 -0.038551297 0.053630196
0.0017294106 -0.03580042 -0.002854034 0.03018878 -0.028360307 0.024170663 0.03497295 -0.070443325
0.0063196067 -0.015897771 0.06090152 0.0398049 -0.02120866 -0.020533293 0.026853686 -0.018197894
0.013610526 0.060723465 0.006091093 0.035248827 -0.025779892 0.026882406 0.07767245 0.030235516
0.038318705 0.020077934 -0.029647565 0.0385066 0.008691885 -0.0040886267 0.096637286 -0.049631882
0.013985943 -0.048084266 -0.032130875 -0.024022344 0.09316161 0.037190326 -0.070894174 0.027884586
-0.048013426 -0.008149917 0.004566953 0.044356503 -0.00020090096 0.010477706 -0.009357661 -0.02223707
0.025205798 0.05027601 0.015461307 -0.0144462595 -0.06848595 -0.014848103 0.03109378 -0.05033801
0.017532945 -0.034271296 0.046681654 -0.02063997 0.0012661502 0.011926195 -0.05530792 0.008717461
-0.01976672 -0.00694752 0.0801573 0.019299133 0.030487286 -0.03292908 -0.023084236 0.022434978

sequential_1/dense_1/BiasAdd/ReadVariableOp:0 f4 [128]
00000000: 2073 3c3c 0b90 6b3c 1dca 4fbc fa05 c13b
00000010: 32e2 153c ea8c f93c 68d7 d8bb 71a2 433c
00000020: 0ed3 033a 01d4 573c d142 c73c af0b 1fbc
00000030: 9540 10bc 2ea6 bd39 73a3 c83a 0fe3 f0bb
00000040: 0af5 d33b 8384 ab3b 1f84 113c c7e1 32bb
00000050: bc9e 81bc 1948 8e3b 7d56 7e3c 6b71 7fbc
00000060: be6e 023c 77d5 063d 1339 be3c 1cf3 173b
00000070: 10e8 d33c 5a08 afbc 9f39 09bd d839 a7bb
00000080: 1f5f 9abc c6cf f8bc f606 973c ff6b 09bc
00000090: 4bb1 963c 5be6 2fbc 473b 7e3c f25e f63b
000000a0: 6c45 e73c 7110 f7bb b602 4d3c 3798 1a3c
000000b0: 7f9a 693c c731 4c3c c137 18bc 69c0 023c
000000c0: 227d 2e3c 272e a63b ac26 b5bb 1053 f1bb
000000d0: c142 e53c aa60 20bc e58c 4d3c 8e6d 9e3c
000000e0: 4de3 07bc de24 2b3c 7bac 21bc 803f 6dbc
000000f0: 5147 1ebc 9d46 d73b 59b9 99bc f782 553c
00000100: b010 923c 6721 2a3b 8c20 ed3c a604 3d3c
00000110: 3944 d83b 45f3 293c 985f f7bb b6ab b43c
00000120: abd2 1ebc d3ae af3c 113a 2abc 70e1 383b
00000130: e583 953c 3272 a3ba 2b2c 00bd 4c7f 383b
00000140: 03cb 31bc dcf6 eaba aac9 a43b 1aec 033c
00000150: ccce 0a3b e978 c33b 7a1c 933c f2df c0bb
00000160: 6db6 8a3c d260 60bc 4334 15bc 8bce a73b
00000170: ac87 a93c 9fae abbb 52ed babb 4608 15bc
00000180: 4e62 bbbc 18d4 bd3c aea5 a73c f58e 843c
00000190: 5381 3bbc e526 ee3c 5b3f d93c 4ac5 b6bb
000001a0: 4899 a43c 366c 62bc d169 2e3c 712f 1dbc
000001b0: 0e0b 86bb ac7d 84bc 7ab7 a43c 607b 0cbc
000001c0: 2c4f 19bc a3d0 713c 8c37 2ebc bc6b a739
000001d0: c1e7 a03c 71f7 063c 6f72 c63b 4038 b23c
000001e0: 0a23 37bc 5f4a 213d 88aa 5d3c 41ac 75bb
000001f0: c106 60bb b0a9 08bc 091c 9f3c 4413 d5bc
0.011502057 0.014377604 -0.012682465 0.005890605 0.009148167 0.0304627 -0.0066174753 0.0119405845
0.0005028703 0.013173104 0.024323853 -0.009707375 -0.00880446 0.00036172703 0.0015307501 -0.0073512862
0.00646842 0.0052343025 0.008881598 -0.0027295218 -0.01582276 0.004342091 0.01552355 -0.015591006
0.007960973 0.03291842 0.023220574 0.0023185676 0.025867492 -0.021366287 -0.033502217 -0.005103331
-0.018844185 -0.030372512 0.018435936 -0.008387565 0.018395087 -0.010736073 0.0155170625 0.0075186426
0.028231345 -0.0075398018 0.012512853 0.009435705 0.014258026 0.01246304 -0.0092906365 0.0079804445
0.010649951 0.0050714198 -0.0055282917 -0.007364638 0.027985932 -0.0097886715 0.012545799 0.01933935
-0.008293939 0.010445802 -0.009867783 -0.014480472 -0.009660558 0.006569697 -0.018765138 0.013031713
0.017830223 0.002595985 0.028946184 0.011536753 0.0065999296 0.010372941 -0.0075492375 0.022054534
-0.009693782 0.021445667 -0.010389821 0.0028210543 0.018251369 -0.0012469946 -0.03129212 0.0028152047
-0.010851624 -0.0017926353 0.005028923 0.0080518965 0.002118039 0.0059653413 0.017957915 -0.0058860714
0.01693269 -0.013694959 -0.009106698 0.0051210574 0.020694576 -0.0052393223 -0.0057045603 -0.009096211
-0.022874024 0.023172423 0.020464744 0.016181448 -0.0114444075 0.02907128 0.026519468 -0.005577718
0.020092621 -0.013819745 0.010645346 -0.00959383 -0.0040906733 -0.016173206 0.02010702 -0.008574337
-0.009357255 0.0147592155 -0.010633361 0.0003193299 0.019641759 0.008237706 0.006056122 0.021755338
-0.011177788 0.039377566 0.013529427 -0.0037486705 -0.0034183713 -0.008341238 0.019422548 -0.026010163

sequential_1/conv2d_2/Conv2D/ReadVariableOp:0 f4 [4, 2, 3, 3]
00000000: d10d 17bd a8aa c5bb fda1 c7bc 61e6 fcbc
00000010: d436 c9bb 3fb4 713c 6d93 e3bd 932c 4ebd
00000020: d702 acbd dfe1 243d 6ce6 e9bc bbd5 b8bc
00000030: 137d 7b3c 6fc1 f3bc b72a 473d df58 3dbd
00000040: 0834 f23c 9f74 753d 1322 7ebd 0983 303d
00000050: fbae 603a b8e8 d8bc 95d1 60bd 9cad c03c
00000060: 8f1f 3dbd c495 c9bc 3f91 d43b 43d4 453d
00000070: 5565 013d 8780 c9bc 447a c93b b979 153d
00000080: e6b6 f83c b68a 103d f259 063c 5ffe c53c
00000090: f370 993c 8773 88bc de6d e63b 72ed acbc
000000a0: 0333 45bd f291 44bd 94f1 c3ba e488 c9bc
000000b0: d540 00bd 8f8d 06be 58ad b7bd c1c9 b4bd
000000c0: 23b9 8e3c 575c 563d fecd c2bc 2ab7 b53d
000000d0: 323e 123d 1fa7 a13d a0b3 4bbd 3ed6 da3b
000000e0: bcb0 ce3c ddc1 e23c 5c54 7d3c f913 81bd
000000f0: eff8 f0bc 9478 69bd 5c33 a7bd a3b3 65bd
00000100: 1c8d 3e3d b4d2 6e3d 3ddb d23c b018 393d
00000110: 1755 4e3d b292 49bb 4023 463c 52e8 77bd
-0.03687841 -0.0060323067 -0.024369234 -0.030871572 -0.006140569 0.014752447 -0.111121036 -0.050335478
-0.08398979 0.04025447 -0.028552257 -0.022562852 0.015349644 -0.029755322 0.04862472 -0.046227332
0.029565826 0.05992567 -0.062044214 0.043093715 0.0008570996 -0.026478156 -0.054887373 0.023520283
-0.046172675 -0.024607547 0.0064870412 0.04829813 0.03159078 -0.02459742 0.0061486084 0.036493037
0.03036065 0.035288535 0.008200156 0.024169145 0.018730616 -0.01665665 0.00703214 -0.021109316
-0.04814435 -0.047990747 -0.0014949315 -0.024601407 -0.03131183 -0.13139938 -0.089686096 -0.08827544
0.017422264 0.052334156 -0.023779865 0.088728264 0.035703845 0.07893204 -0.04973185 0.0066783717
0.025230758 0.027680332 0.015462007 -0.063026376 -0.029415576 -0.056999758 -0.08164093 -0.056079518
0.04652129 0.05830641 0.025739307 0.04518956 0.050374117 -0.0030757603 0.012093365 -0.060524292

sequential_1/conv2d_2/BiasAdd/ReadVariableOp:0 f4 [4]
00000000: 769c 79bc be66 16bd 8cae 203c 9b2a cabb
-0.015235057 -0.036719076 0.00980724 -0.0061696297

sequential_1/conv2d_1/Conv2D/ReadVariableOp:0 f4 [2, 1, 3, 3]
00000000: 8608 c4bc c2e9 0fbc 084a 63bd c5fa 3bbd
00000010: e3e8 153c c48a 06bc 1c3d dcbb 8f31 23bc
00000020: 7d8c f2bc 22d8 b13d f5af 9b3d e181 653d
00000030: 062c 263d 0bcb bf3d b426 863d a94b 4d3d
00000040: f02f 33bc ce94 d9bc
-0.023929846 -0.00878376 -0.055490524 -0.04589345 0.009149763 -0.008211795 -0.006721152 -0.009960546
-0.029608006 0.08683802 0.076019205 0.056032065 0.040569328 0.09364899 0.06550351 0.050120983
-0.010936722 -0.026560213

sequential_1/conv2d_1/BiasAdd/ReadVariableOp:0 f4 [2]
00000000: e368 bd3d 09d5 0dba
0.09248521 -0.0005410468
