NNRepair_Benchmarks/networks/normmnist_adv.onnx (onnx, 304497 bytes, 8 tensors)

sequential_1/dense_2/MatMul/ReadVariableOp:0 f4 [128, 10]
000000 ba 77 8a be 84 29 9b be f1 a4 25 3b da 26 44 3e
       -0.2704447 -0.3030511 0.0025275315 0.19155446
000010 9f 4c b4 3c 48 8e 6e bb f3 46 ab be cc cf 8b 3d
       0.022009192 -0.0036400724 -0.33452567 0.068267435
000020 2a 79 a0 3d 30 1d 85 3d 92 2d 22 be 57 cc c7 bc
       0.0783561 0.06499708 -0.15837696 -0.024389429
000030 42 97 1f bc 87 0e 67 be 86 d3 32 3d 81 ac 9f 3d
       -0.0097406525 -0.22564135 0.043658756 0.077965744
000040 22 5f b5 3e be 3d 19 3e 5c da 40 3e f7 ea e3 be
       0.35424143 0.14964959 0.18833297 -0.445152
000050 53 aa 5d bb 3b 13 4e 38 2f e3 0b bd c5 7f 7d bc
       -0.0033823445 4.9132137e-05 -0.034152206 -0.015472357
000060 a9 a4 31 bd 20 fc 92 bd dd 25 80 3c 8b 87 87 3c
       -0.043369923 -0.07176995 0.015643055 0.016544124
000070 cd 09 bd bb 83 a9 07 3c 0c 39 2d 3d 62 f6 13 bc
       -0.0057689906 0.008280161 0.042290732 -0.00903091
000080 b0 29 2c bc fa 0b 06 bc 60 ca 91 bc b6 69 f7 bb
       -0.010507986 -0.008181566 -0.017796695 -0.0075504435
000090 94 4a 67 bc 35 56 b6 bc 18 fa e6 3c b3 1e 96 3c
       -0.014116902 -0.022257904 0.028195426 0.018325185
0000a0 8c 61 75 3d 84 3f a1 be 9a b2 48 3e 12 6d 8a be
       0.05990748 -0.3149377 0.19599381 -0.2703634
0000b0 ff c5 0a bc 48 e8 9e 3d 4e da a7 3b fb e5 09 3d
       -0.0084700575 0.07759148 0.0051224595 0.033666592
0000c0 79 72 33 bd ad 56 b9 3d f9 cd 24 bd 28 53 47 3d
       -0.04381034 0.09049735 -0.040235493 0.04866329
0000d0 a3 1f e4 bc a2 37 bc 3c f9 89 14 3d bd 30 63 3c
       -0.027847117 0.022975747 0.036264393 0.013866601
0000e0 dc e7 29 3b 8f dc 03 bd de d3 51 3c 14 93 a9 3c
       0.0025925552 -0.032192763 0.012806861 0.020700015
0000f0 f5 ee 06 bb 8a 79 33 3c 80 8c 15 bd a3 e5 55 3c
       -0.0020589207 0.01095427 -0.036510944 0.013055238
000100 1c 37 9a bc 11 77 b2 3c 6e f1 de 3c 4f e9 06 3d
       -0.018825106 0.02178529 0.027214732 0.032937344
000110 ac cb bb 38 a8 bf c8 bb 01 21 00 bc 85 3c 88 3c
       8.954792e-05 -0.006126363 -0.007820369 0.01663042
000120 a8 88 16 3d 31 70 0b 3d 0d f9 40 3d 7b ba 0c 3c
       0.03675142 0.03404254 0.047112513 0.008589382
000130 9c c9 a0 3c 78 1f 86 ba 2f 3a 1b 3d b1 4f 2e 3d
       0.019627385 -0.0010232767 0.037897285 0.04255647
000140 d5 54 ed bc ed 01 46 bd d4 ae fa bc a2 aa a8 3c
       -0.028971115 -0.04834168 -0.030600943 0.020589177
000150 46 ff 9c 3c 94 2c dc bc 8f 76 d2 3b 89 55 34 bd
       0.019164693 -0.026876725 0.0064228247 -0.044026885
000160 54 18 ab 3c cf bd b5 bc 23 46 8e bc 2e d1 10 3e
       0.020885624 -0.022185234 -0.017367428 0.14142296
000170 ff 0a b9 3e ee 0a 24 be 8a 88 33 be 57 55 f7 3d
       0.36141202 -0.16019794 -0.17532554 0.12076824
000180 4d df 91 3e 15 24 ad be a1 9f ed be 11 cf 3b bd
       0.28490677 -0.3381659 -0.4641085 -0.04585177
000190 b6 fa cd 3e d7 4b 16 3c 13 6c 54 3e 9b 36 99 bc
       0.4023034 0.009173355 0.20744352 -0.018702796
0001a0 2a db b1 bd b9 9e 06 bf 25 51 90 be 77 cb 07 3e
       -0.0868438 -0.5258594 -0.28186908 0.1326121
0001b0 f7 23 dd 3d 92 8e a5 3c ed 53 7b be 47 5d 4a be
       0.107978754 0.020209584 -0.24543734 -0.19762145
0001c0 29 12 4d be 46 6c d3 3d 64 7d 04 3c 63 71 45 3e
       -0.20026459 0.10323386 0.008086536 0.19281535
0001d0 96 ee eb 3d ab d1 47 be 85 ec cf 3d 5f 8c 36 bd
       0.11520116 -0.19513576 0.101525344 -0.044567462
0001e0 18 5f 1c 3d e8 21 bd be 3d 5f fa bd a8 d7 83 be
       0.038176626 -0.3693993 -0.122251965 -0.2575047
0001f0 20 8c ee 3d 29 71 f7 3d f3 1d 30 3e 1b f1 81 be
       0.116478205 0.120821305 0.17198925 -0.2537926
000200 b9 77 49 3e 3d 22 92 bc 65 17 6f 3d 87 34 65 3e
       0.19674577 -0.017838592 0.05837192 0.22383319
000210 96 f4 8d be 03 2f b5 be 33 fa 47 be 27 07 e8 3d
       -0.27725667 -0.3538743 -0.19529037 0.11329489
000220 98 4e 83 3e 0c de 4d be 1a 7c 70 3d 17 62 77 bc
       0.256459 -0.20104235 0.058712102 -0.01509907
000230 1b 23 70 bc 0d b4 8f bc a6 ae 42 3b 4c 43 5d bb
       -0.014656807 -0.01754191 0.002970615 -0.0033762036
000240 20 25 3d bd 26 78 1b bb c9 86 0b bd 53 43 ff bc
       -0.046177983 -0.0023722737 -0.034064088 -0.031160032
000250 3b d5 2a 3d 67 14 68 bd c6 06 40 be 9c 4b c8 3d
       0.04170726 -0.056660082 -0.18752584 0.09780046
000260 03 ac b2 3d 9d 7c 63 3d da 6f b1 bd 59 0f 05 be
       0.08724215 0.055538762 -0.08663912 -0.12994136
000270 82 15 d5 3c 05 0e 90 bd 30 ea 3e 3d 4e e2 d2 3b
       0.026011232 -0.07033924 0.046610057 0.006435669
000280 9a 29 88 bb e6 b1 e2 3c 39 f3 3b 3c 2e 61 ec 3c
       -0.00415535 0.02767272 0.011471563 0.028854933
000290 65 48 9e 3c 29 3d ac 3c 40 14 b1 3c ef 76 06 bc
       0.01932163 0.021025257 0.021616101 -0.008207067
0002a0 10 59 0c 3d c9 89 02 3c eb 44 ec bc 8f 26 20 bd
       0.034264624 0.007967421 -0.028841456 -0.039099272
0002b0 19 10 22 3c 9f ca 61 bc fd d9 21 3d 07 fd 11 bd
       0.009891533 -0.013781219 0.03951453 -0.035641696
0002c0 ad 70 ab 3c 50 da 5f 3c fa 1c 1e 3d b6 96 dd 3c
       0.020927751 0.01366289 0.038601853 0.027049404
0002d0 d0 28 cb 3c 23 49 c8 3c 04 36 20 3d a4 65 d7 3c
       0.024799734 0.024448937 0.039114013 0.026293583
0002e0 6d 62 16 bd 95 63 5c bb e7 df 38 3d ae a9 c1 3b
       -0.03671496 -0.0033628691 0.045135405 0.00591012
0002f0 e8 bc 94 3c 88 e6 06 3c f2 74 2b be a3 9f ed bc
       0.018156484 0.008233674 -0.1674383 -0.029006785
000300 c2 5a 55 3d 44 ce 9c be 5b a1 83 3d 0a 65 b6 be
       0.052088507 -0.30626118 0.064272605 -0.35623962
000310 83 43 85 be b7 24 3d 3e f7 88 cd 3e de 7b 99 3a
       -0.2602807 0.18471037 0.40143558 0.0011709889
000320 3f 82 dc bc f4 37 8f bc de 90 e7 bc c3 74 a3 bc
       -0.026917575 -0.017482735 -0.02826732 -0.019953137
000330 45 11 fa 3c fd df c5 3a b4 2f 63 3b bf b7 af 3c
       0.030525813 0.0015096661 0.0034665884 0.021449922
000340 c2 8f 1e bd e7 e2 5d bc 15 ef 18 be 44 58 04 3e
       -0.038711317 -0.013542867 -0.14934953 0.12924296
000350 ba e5 e8 3d 0b 40 e2 3d ea 39 ec 3c 50 9e 49 3d
       0.11371942 0.110473715 0.02883621 0.049223244
000360 4c 42 ab be 71 b0 c1 3d f4 d4 4b be 90 39 e4 bd
       -0.33449018 0.09457482 -0.19905454 -0.11143792
000370 91 c0 18 bd 9c b7 46 bd e3 38 3c bd 66 83 08 bd
       -0.03729302 -0.048514947 -0.04595269 -0.033328436
000380 e7 1b 08 bb 8c 46 ca bb 74 0f d1 3b 6e 15 6d 3b
       -0.0020768584 -0.0061729606 0.006380016 0.0036176103
000390 02 14 3e bb 51 23 d9 ba 6d 99 0a bd b6 06 1e 3e
       -0.0029003625 -0.0016566311 -0.033837724 0.15432248
0003a0 18 5b 17 3e 38 9e ae 3d 34 83 52 3e d2 57 03 bf
       0.14780843 0.085262716 0.20557863 -0.5130588
0003b0 fe 75 d0 bd 40 15 c0 3c 8b 5d 56 be 2e 45 95 bc
       -0.10178755 0.023447633 -0.20934121 -0.018221464
0003c0 6c fd 3d 3d 93 5f b0 ba 11 59 fb 3c eb 52 24 bc
       0.04638426 -0.0013456218 0.030682119 -0.010029535
0003d0 c6 6f 83 3c 5f e1 0d bc f3 b0 f7 3c 24 aa 39 3d
       0.016044509 -0.00865969 0.030235743 0.045328274
0003e0 47 d5 a9 3c e3 cc 2e bd af 22 3b bd a9 f4 fe bc
       0.020731581 -0.042675864 -0.045687374 -0.031122522
0003f0 ea 76 ac bc 2f 6f 42 bc 2d 5e de bc cd bb a1 bc
       -0.021052796 -0.011867329 -0.027144516 -0.01974287

sequential_1/dense_2/BiasAdd/ReadVariableOp:0 f4 [10]
000000 f5 29 30 bd 5d 4c 6c bd 5a f3 10 3d 91 d7 a6 3d
       -0.043008763 -0.057690013 0.035388328 0.08146585
000010 94 6f b2 bd 81 ac 57 3d 01 85 14 bd 8b 36 63 bd
       -0.08712688 0.052654747 -0.036259655 -0.055471938
000020 98 2b eb 3c fa d1 ab 3c
       0.02870731 0.020974148

sequential_1/dense_1/MatMul/ReadVariableOp:0 f4 [576, 128]
000000 e1 b0 2c 3d 26 e1 95 3c 50 6d c6 3b a6 cb d5 3c
       0.042160872 0.018295836 0.0060555115 0.026098084
000010 4d ba b3 bc 00 f5 ee 39 60 ca fe ba e8 c5 40 3c
       -0.021939421 0.00045577437 -0.0019438975 0.0117659345
000020 cd 02 c6 bc b4 3d 77 bc aa b1 2b bd 60 f3 15 bb
       -0.024171257 -0.015090395 -0.04191748 -0.0022880659
000030 22 2e f8 3c c0 cc a7 ba 23 74 17 bd d3 1b f2 bc
       0.030295435 -0.0012802109 -0.03697599 -0.029554283
000040 00 2c f5 b8 d4 85 8c bc da 61 19 bd 40 9d 1c 3c
       -0.00011690706 -0.017153658 -0.037446834 0.009558976
000050 b3 21 49 3d a7 1e 2e 3d 04 20 0a bd d0 8b 47 bb
       0.049104404 0.0425097 -0.03372194 -0.0030448325
000060 e2 44 8c 3c 4d dd af bc 6d 99 ec bc 34 9b 4c 3c
       0.01712269 -0.02146783 -0.028881753 0.012488175
000070 9a 9f 91 bc 18 dc ab bb 26 46 ce 3c 63 3f 48 bd
       -0.0177763 -0.005244743 0.025179934 -0.048888575
000080 40 cc 46 3c 80 e2 ec 3b 13 d9 2d 3d 7d 91 3e 3d
       0.012133658 0.0072291493 0.042443346 0.046525467
000090 40 b3 4e ba 0d d2 cd bc 1a 03 9c 3c 7a a7 05 bd
       -0.00078849867 -0.025124574 0.019044448 -0.03263042
0000a0 a3 58 15 3d f2 ab fa 3c 92 09 af 3c 23 c2 0f bd
       0.036461484 0.030599568 0.021366868 -0.035097253
0000b0 68 08 c8 3b d3 7f 29 3d 79 59 24 3d 01 46 13 3d
       0.0061045177 0.04138167 0.04012439 0.035955433
0000c0 e3 4a 0c 3d d0 89 48 3b 18 60 3b bc 47 01 e2 bc
       0.034251105 0.003059972 -0.011436485 -0.0275885
0000d0 cd 38 05 3d 60 fa ec ba 00 83 a2 3b e9 af 0f 3d
       0.032524873 -0.0018079989 0.004959464 0.03507987
0000e0 16 f3 01 bd 74 53 38 bc c9 6d 3e 3d d0 9f 33 bb
       -0.031725965 -0.0112503655 0.046491418 -0.0027408488
0000f0 27 c1 36 bd 67 c4 99 bc ac c9 86 bc f6 f2 09 bd
       -0.0446178 -0.01877041 -0.016453587 -0.03367897
000100 a0 76 1b 3b fd 62 06 3d 20 7b e5 bc 66 4f d9 3c
       0.002372183 0.032809246 -0.028012812 0.026527118
000110 c0 53 2f bd 98 e8 18 3c 20 03 0d bd a8 58 66 bc
       -0.04280448 0.009332798 -0.03442681 -0.014059223
000120 06 68 8c bc ae ed df 3c a0 e6 70 bb ba b8 a2 bc
       -0.017139446 0.027335014 -0.0036758557 -0.019863475
000130 98 85 51 bc 33 53 2a 3d e6 12 87 bc 64 cd 57 3c
       -0.012788199 0.04158325 -0.016488504 0.013171528
000140 d9 1e 22 3d ba 51 f1 3c 97 31 32 bd 4c c3 72 3c
       0.0395802 0.029457916 -0.043504324 0.01481707
000150 c7 4b 26 3d ca b1 3f bd 00 4e 83 ba 5d 89 0c 3d
       0.04059961 -0.046800412 -0.0010017753 0.034310687
000160 18 8c d6 3b 02 93 ef 3c a8 de 16 3c a6 91 a3 3c
       0.006547462 0.029244903 0.009208359 0.019966912
000170 bd a8 07 bd 00 4a 19 39 9a ff 89 bc 37 69 10 3d
       -0.033119906 0.00014618784 -0.016845513 0.03525659
000180 fd 6d 34 bd 40 5b eb 3a 0e 6c fe 3c ce 5e f3 3c
       -0.044050205 0.0017956272 0.031057384 0.029708292
000190 f6 6c 1e bd b0 f0 43 bd 98 fb 3c bc a0 61 43 bd
       -0.038678132 -0.04783696 -0.011534594 -0.047700524
0001a0 8d 41 45 bd 82 60 84 3c f3 f5 3a 3d e3 cb 1e bd
       -0.048158217 0.0161593 0.04564471 -0.03876866
0001b0 30 30 f5 bb 93 75 27 3d 0a d2 2f bd 68 f8 d3 3b
       -0.007482551 0.040883612 -0.04292492 0.0064688213
0001c0 0c 95 35 bc 2a c2 45 bd 2a be 21 bd 43 44 12 3d
       -0.011082899 -0.048280872 -0.039487995 0.03570963
0001d0 a6 63 85 3c 00 1a 04 bb 80 07 19 bc 1d b4 23 bd
       0.016282868 -0.0020157099 -0.009340167 -0.03996669
0001e0 d0 68 03 bd 51 a2 0c 3d da 6e 3f bd ac 9a 93 bc
       -0.03208238 0.034334484 -0.046736576 -0.01801809
0001f0 68 54 34 3c a6 d3 93 bc 34 81 7b bc 87 fd 41 3d
       0.011006452 -0.018045258 -0.015350629 0.047360923
000200 d8 84 46 3d 39 75 c1 3d 05 a1 56 bd 97 66 9f 3c
       0.048466533 0.094461866 -0.052399654 0.019458098
000210 4c b7 b1 3b 24 89 68 bd 3d 62 8f 3c e3 87 0d 3b
       0.005423462 -0.056771412 0.017502898 0.0021595887
000220 db ae a2 bc 83 df 71 bd 03 d0 62 bc 24 ec 86 3d
       -0.019858768 -0.059051048 -0.013843539 0.06588009
000230 44 f2 b3 bb e1 77 25 bc 50 fc f5 bb d2 a7 cc 3d
       -0.005491527 -0.010099382 -0.0075068846 0.09992947
000240 ec 3e 04 bd 3b 27 28 3d a8 34 32 3c 64 6a bf bc
       -0.03228657 0.041053038 0.010876812 -0.02336616
000250 28 59 7a bc d4 e6 e1 3d 73 dc d7 bc ec dd 9f bc
       -0.015280046 0.11030355 -0.026350236 -0.019515
000260 92 9a bf bc 9b 10 2b bd 27 1f ff bc eb 3c 20 3e
       -0.023389135 -0.041763883 -0.031142784 0.15648238
000270 0d 4b d6 bd f8 8d 21 3d e0 a0 c4 3d 17 62 1f 3d
       -0.104635336 0.039442033 0.09600997 0.038911905
000280 7a a4 97 bd d6 29 ca 3d 6b 18 a4 bd 2a 96 47 bd
       -0.07404418 0.09871261 -0.0801247 -0.048727192
000290 71 f1 2f bd ea dc 59 3c 6d 09 a9 bd 67 16 10 bb
       -0.042954866 0.013297299 -0.08253751 -0.002198601
0002a0 80 da cb bb 94 50 19 bd f1 92 76 3e 96 30 3e bd
       -0.0062211156 -0.03743036 0.24079491 -0.046433054
0002b0 c2 18 ac 3d 4d fb 09 bd 00 38 f4 ba 85 cc b5 bb
       0.0840316 -0.033686925 -0.0018632412 -0.0055480623
0002c0 d4 5f 93 bd 4b eb 7b 3d c5 c8 99 bd 7b 13 0c 3d
       -0.07196012 0.06150369 -0.07508997 0.034198266
0002d0 50 8b 37 bd 6e 84 8e 3d fe 90 f0 3c db fd c9 3c
       -0.044810593 0.06958853 0.029366013 0.02465718
0002e0 fa 9b 10 3c 95 f2 9c 3c 04 ed 2f bd f4 d9 b5 3b
       0.00882625 0.01915864 -0.042950645 0.0055496637
0002f0 5e e2 0c bd a8 a0 b9 bd 2f b3 69 3d 47 c1 ce bb
       -0.034395568 -0.09063846 0.05705565 -0.0063096615
000300 cf cc 3b 3e 10 8a 44 bc f8 35 3b bd ca 39 d6 bc
       0.18339847 -0.011995807 -0.045705765 -0.026150603
000310 ab 44 75 bd b3 76 9e 3d 30 ca 0e bd 31 13 82 bc
       -0.05987994 0.07737484 -0.03486079 -0.015878292
000320 95 b8 44 bd 04 7a 84 3c 3a 3c 16 bd 07 4d 21 3d
       -0.048027594 0.016171463 -0.03667853 0.0393801
000330 8c fc e2 3c c9 8c 8a 3c b3 d5 b8 bd 36 16 a0 bd
       0.027708314 0.016912835 -0.09025135 -0.078167364
000340 e1 9e d2 3c d6 05 f6 3b 3c e3 1f bd 4d 73 44 bd
       0.025710525 0.00750802 -0.039035067 -0.047961522
000350 48 90 7f 3c a0 11 d7 bc 18 a3 f0 bc 5f ed 03 3d
       0.015598364 -0.026253521 -0.029374644 0.032208797
000360 0d d9 4a bd 65 5a 91 bd e3 36 e9 bc ef f2 58 bc
       -0.049523402 -0.070973195 -0.028468555 -0.013241514
000370 f0 30 00 3d 61 18 da bd 8e e6 dc 3c ba 2d 02 3e
       0.03129667 -0.10649181 0.026965406 0.12712756
000380 b3 eb 07 3c 39 a5 09 3e 07 9b f1 bb 89 82 0b 3d
       0.008295941 0.13441934 -0.007373217 0.034060035
000390 5e cf 63 bd 63 b3 05 3c f7 14 38 3d da 0a 81 3c
       -0.055617683 0.008160445 0.04494187 0.015752245
0003a0 14 5c 1a bb e3 86 73 3d b6 4c 4b bc 28 58 91 bb
       -0.0023553418 0.05945481 -0.012408426 -0.004435558
0003b0 18 eb 68 bd 8d 1e 3a bd 4c 0f 7e bd cd ef 1f bc
       -0.056864828 -0.04543929 -0.062026307 -0.009761763
0003c0 20 b6 cf bc 98 08 0f bb b7 86 8a 3d b1 46 8f 3d
       -0.025355399 -0.002182519 0.06763976 0.06995905
0003d0 45 09 07 3d 3b 7c 61 bc 64 00 16 bd e4 20 20 bc
       0.032967824 -0.013762529 -0.036621466 -0.009773467
0003e0 63 da 9d ba 44 f3 5b bd 13 59 86 bd 4d b5 c0 bc
       -0.0012043234 -0.053698793 -0.06559958 -0.023523951
0003f0 a1 1f 1e 3b a3 85 31 3c 33 15 88 3d d3 17 ce bc
       0.002412774 0.010835084 0.066446684 -0.025157845

sequential_1/dense_1/BiasAdd/ReadVariableOp:0 f4 [128]
000000 0c a6 e4 3d db 84 90 bd 03 1d 0a bd 28 5d 15 bc
       0.111644834 -0.0705659 -0.033719074 -0.009116448
000010 a3 28 25 3d de e8 d2 bb 93 7b 22 bc b7 35 83 bb
       0.040321957 -0.0064364513 -0.009917158 -0.004004206
000020 bb 41 1c bc a5 8d fa bb 33 47 23 bd 50 d2 e1 3d
       -0.009537156 -0.00764628 -0.039862823 0.11026442
000030 98 f9 68 bd 81 19 d3 bc 9b 76 b8 bb 6b 93 17 3d
       -0.056878656 -0.025768997 -0.0056293732 0.037005823
000040 83 7a 3a bc 39 48 2c bc d0 b2 16 bc 12 8e 74 bd
       -0.011381748 -0.010515266 -0.009197906 -0.0597058
000050 ab 10 15 bc ae b8 6a 3d 08 8a d1 bc 10 4f d2 bd
       -0.009098212 0.05730503 -0.025578514 -0.10268986
000060 e5 da f9 bb 01 06 af bc 6d b8 01 bc b5 67 01 3e
       -0.007624971 -0.021365168 -0.007917506 0.12637217
000070 cb 7a b5 bd 86 27 7d bc 52 33 c3 3d 0c 0c ee bb
       -0.088613115 -0.015451318 0.09531273 -0.0072646197
000080 39 e6 91 3b 49 15 bd 3d 1c 5a d9 bd 10 a9 fe bb
       0.0044524935 0.092325754 -0.1061289 -0.0077716187
000090 50 29 16 bc 0d 07 89 bd 27 2b 83 bd dd 33 71 bc
       -0.009165123 -0.06690798 -0.06404715 -0.014721838
0000a0 23 be 21 bc cc e1 e4 3c 97 01 a5 3d a2 62 50 bb
       -0.009871992 0.0279397 0.08056944 -0.003179707
0000b0 45 57 76 3d 11 a5 1f bc 80 87 1e bc 34 43 c4 bb
       0.06014182 -0.009743945 -0.00967586 -0.0059894565
0000c0 73 21 1a 3c 67 37 d8 bc 9d e2 30 bd 29 92 db bb
       0.009407389 -0.026393605 -0.043184865 -0.0067007733
0000d0 42 6c bd bc 7c 9f f5 3b c4 2f ec bc a6 57 f9 bc
       -0.02312291 0.0074958187 -0.02883137 -0.030437302
0000e0 7c 53 44 bc 5a cf 71 bc 88 29 05 bd 4e 6d 87 bc
       -0.011982795 -0.014758909 -0.03251031 -0.016531613
0000f0 8f e2 4d bc 98 73 04 3d c5 1a c3 ba ea 45 0c bd
       -0.012566223 0.0323368 -0.0014885297 -0.034246363
000100 a6 b4 55 3c 69 45 7b bc 67 b0 03 bc b4 e2 a3 bc
       0.013043558 -0.015336373 -0.008037663 -0.020005561
000110 6b 80 d3 3b 7f bf 06 3d ae d6 45 bc d3 5c 2a bc
       0.0064545176 0.03289747 -0.012075109 -0.010398108
000120 32 20 7e bd 19 3f e5 bb a8 77 ea bb ce 80 16 bc
       -0.062042423 -0.006996047 -0.0071553774 -0.009185983
000130 4a a0 2e 3d b2 76 00 bc a7 c3 7c 3c 95 01 8b bd
       0.042633332 -0.007840799 0.0154275065 -0.06787411
000140 0a f0 3a bc 8b 9a 82 bb 03 55 6a bb 8b 2e f2 bb
       -0.011409769 -0.003985708 -0.0035756237 -0.0073908023
000150 4c 12 c8 bc 6b 61 5b 3d 0c b8 29 bc a0 39 b1 bc
       -0.024422787 0.053559702 -0.010358822 -0.021633923
000160 51 09 1c bc 46 2e ce bc 04 c6 f0 bb ca 27 c9 bb
       -0.009523706 -0.02516855 -0.007347824 -0.0061387764
000170 3b e3 96 ba ca b7 9e bd 96 93 17 bc f3 03 ad 3c
       -0.0011511812 -0.07749899 -0.009251496 0.021120047
000180 41 aa 8c bd 00 68 19 3e 04 3a 08 3d 62 0a 1e bc
       -0.06868411 0.14981079 0.033258453 -0.00964603
000190 b3 de 83 bb 4b ee 1b 3e 00 00 00 00 4d d4 16 bc
       -0.0040243506 0.1522762 0.0 -0.00920589
0001a0 d2 e0 d9 bb bf c5 01 bd f2 9a 9e bc 5c 36 89 3c
       -0.006649115 -0.031682726 -0.019360993 0.016749553
0001b0 12 e0 e1 bc ce 92 1c bd 0e 43 d7 bc c6 8b 11 bc
       -0.027572665 -0.03822594 -0.026277091 -0.008883422
0001c0 53 07 97 bd 18 f4 c1 bb 66 91 63 bd 8f 7c 14 3d
       -0.07374444 -0.005918991 -0.055558585 0.0362516
0001d0 bf 55 8f bc d1 fd 33 bd bf 6c 71 bc ca 8b 7c bb
       -0.017496942 -0.04394323 -0.0147354 -0.003853547
0001e0 65 03 f7 bc 54 a4 8f 3d d4 c4 8e bc b6 6c 6f bc
       -0.030152986 0.07013765 -0.01742784 -0.014613321
0001f0 b0 20 8c bd 80 c5 93 bb 7c 93 33 3d aa 93 17 bc
       -0.06842172 -0.004509628 0.043841824 -0.009251514

sequential_1/conv2d_2/Conv2D/ReadVariableOp:0 f4 [4, 2, 3, 3]
000000 f7 67 23 bc e8 f5 36 bd 0e 01 ca 3a e3 f3 30 bc
       -0.009973518 -0.04466811 0.0015411691 -0.010800335
000010 af d5 ff bb 77 47 a0 bb 6f 01 23 bd 44 f8 d6 bb
       -0.0078074555 -0.004891332 -0.03979629 -0.0065603573
000020 06 94 4e bd 40 94 48 3c 8a 6a 2b 3c 88 5a de bc
       -0.050434135 0.012242377 0.010462413 -0.027142778
000030 a2 8d 19 bb 57 b8 40 bc a1 93 0a bc 72 ad e7 39
       -0.0023430367 -0.0117627 -0.008458049 0.0004418898
000040 dc d9 ef bc 3b ac 20 bc d6 d9 e1 3e f1 da 4c 3f
       -0.029278688 -0.009806688 0.44111508 0.8002158
000050 36 c3 48 3f 32 a0 39 3f 8b 2f 5b 3f 80 e4 21 3f
       0.7842287 0.72510064 0.8561942 0.6323929
000060 d9 48 1c 3f 3b 94 eb 3e 37 f2 d3 3e 53 f5 90 be
       0.61048657 0.46011528 0.41395733 -0.28312168
000070 3b 4f 6c 3e 48 c9 2e 3e ed bf 2a be d3 42 ba 3e
       0.23077099 0.1706897 -0.16674776 0.36379108
000080 34 a6 0f 3e a7 21 8a bd 9d 9c a0 3e 8f a9 28 3e
       0.14028245 -0.067447 0.31369486 0.16470931
000090 b7 0a 88 bb 8a fb 60 bb 34 0d 27 bc da f9 be 3c
       -0.004151668 -0.0034329616 -0.010196019 0.023312498
0000a0 ad e7 f8 bc ed b0 ec bc d1 e7 3b bd 18 b0 35 bc
       -0.03038391 -0.028892959 -0.045875374 -0.011089347
0000b0 40 bd 5d bc f6 e2 9e 3c da 2a 94 bc e3 50 17 3d
       -0.01353389 0.019395333 -0.01808684 0.036942374
0000c0 e1 80 13 bc d3 5f 05 3d 02 31 dd 3c 0d ce 25 bd
       -0.009002895 0.03256209 0.027000908 -0.04047971
0000d0 10 c9 2b bd 3d f1 7f bb aa af a9 3b 03 75 51 bd
       -0.041939795 -0.0039053701 0.0051784115 -0.05113698
0000e0 da f1 47 3e cf 9e da bc 22 4d e7 bd 19 28 be 3d
       0.19525853 -0.026687054 -0.11294009 0.09284992
0000f0 45 3d ef 3d c4 28 99 bc 79 ff 89 3d b9 2d 2f 3f
       0.11681608 -0.018696196 0.06738181 0.6842914
000100 5f 57 36 3f 4a 37 4c 3f 35 5e 49 3f 71 ff 63 3f
       0.7122707 0.79771864 0.78659374 0.8906165
000110 4c cd 2b 3f 30 67 30 3f 82 cb 2a 3f e2 8e 11 3f
       0.67110133 0.6890745 0.6671678 0.56858647

sequential_1/conv2d_2/BiasAdd/ReadVariableOp:0 f4 [4]
000000 84 e2 b0 bd 57 d0 cc be 92 16 47 bd 9f 33 2f bf
       -0.086369544 -0.400027 -0.04860551 -0.6843814

sequential_1/conv2d_1/Conv2D/ReadVariableOp:0 f4 [2, 1, 3, 3]
000000 c4 75 9d be 3f 18 20 3d 02 63 0f 3f 7b 7f 30 bf
       -0.3075391 0.039085623 0.5601045 -0.6894452
000010 0d 12 31 3d b7 32 b0 3e 01 ae 5e be c6 3e c3 3e
       0.043230105 0.34413692 -0.21746065 0.3813383
000020 6d c3 b6 3e 0c 32 19 bf e0 a1 1d bf 95 18 3a bd
       0.35695973 -0.5984199 -0.61575127 -0.0454336
000030 ed 08 01 bf 0d 59 d2 3d b9 a6 e6 3e 18 77 79 bf
       -0.50404245 0.10270891 0.45049074 -0.9744735
000040 2c 34 68 be d2 06 28 3e
       -0.22676152 0.16408852

sequential_1/conv2d_1/BiasAdd/ReadVariableOp:0 f4 [2]
000000 d8 af ec bd 41 d9 c4 3e
       -0.11556977 0.38447002
